…
 100%|█████████▉| 21076/21098 [00:57<00:00, 253.56Rows/s]Processing Images: 100%|██████████| 21098/21098 [00:57<00:00, 364.93Rows/s]
total entries=43236 size=2241354384
X_train=38912, X_val=4324, Y_train=38912, Y_val=4324
Training model at rate=0.0001, flip=True
____________________________________________________________________________________________________
Layer (type)                     Output Shape          Param #     Connected to                     
====================================================================================================
lambda_1 (Lambda)                (None, 72, 240, 3)    0           lambda_input_1[0][0]             
____________________________________________________________________________________________________
convolution2d_1 (Convolution2D)  (None, 70, 238, 64)   1792        lambda_1[0][0]                   
____________________________________________________________________________________________________
activation_1 (Activation)        (None, 70, 238, 64)   0           convolution2d_1[0][0]            
____________________________________________________________________________________________________
dropout_1 (Dropout)              (None, 70, 238, 64)   0           activation_1[0][0]               
____________________________________________________________________________________________________
convolution2d_2 (Convolution2D)  (None, 68, 236, 32)   18464       dropout_1[0][0]                  
____________________________________________________________________________________________________
activation_2 (Activation)        (None, 68, 236, 32)   0           convolution2d_2[0][0]            
____________________________________________________________________________________________________
convolution2d_3 (Convolution2D)  (None, 66, 234, 16)   4624        activation_2[0][0]               
____________________________________________________________________________________________________
activation_3 (Activation)        (None, 66, 234, 16)   0           convolution2d_3[0][0]            
____________________________________________________________________________________________________
convolution2d_4 (Convolution2D)  (None, 64, 232, 8)    1160        activation_3[0][0]               
____________________________________________________________________________________________________
activation_4 (Activation)        (None, 64, 232, 8)    0           convolution2d_4[0][0]            
____________________________________________________________________________________________________
maxpooling2d_1 (MaxPooling2D)    (None, 32, 116, 8)    0           activation_4[0][0]               
____________________________________________________________________________________________________
flatten_1 (Flatten)              (None, 29696)         0           maxpooling2d_1[0][0]             
____________________________________________________________________________________________________
dropout_2 (Dropout)              (None, 29696)         0           flatten_1[0][0]                  
____________________________________________________________________________________________________
dense_1 (Dense)                  (None, 128)           3801216     dropout_2[0][0]                  
____________________________________________________________________________________________________
activation_5 (Activation)        (None, 128)           0           dense_1[0][0]                    
____________________________________________________________________________________________________
dropout_3 (Dropout)              (None, 128)           0           activation_5[0][0]               
____________________________________________________________________________________________________
dense_2 (Dense)                  (None, 64)            8256        dropout_3[0][0]                  
____________________________________________________________________________________________________
activation_6 (Activation)        (None, 64)            0           dense_2[0][0]                    
____________________________________________________________________________________________________
dense_3 (Dense)                  (None, 32)            2080        activation_6[0][0]               
____________________________________________________________________________________________________
activation_7 (Activation)        (None, 32)            0           dense_3[0][0]                    
____________________________________________________________________________________________________
dense_4 (Dense)                  (None, 1)             33          activation_7[0][0]               
====================================================================================================
Total params: 3,837,625
Trainable params: 3,837,625
Non-trainable params: 0
____________________________________________________________________________________________________
Epoch 1/10
   96/38976 [..............................] - ETA: 2838s - loss: 
…
